…
execution_count":72,"outputs":[]},{"cell_type":"code","metadata":{"id":"mmDFQzgI-o-X","colab":{"base_uri":"https://localhost:8080/"},"executionInfo":{"status":"ok","timestamp":1606255314116,"user_tz":300,"elapsed":2035,"user":{"displayName":"Zhounan Li","photoUrl":"","userId":"12163187697439231323"}},"outputId":"a34b9834-7d2e-422e-e447-410d161fb368"},"source":["model = TinyBERTClass()\n","model.to(device)"],"execution_count":73,"outputs":[{"output_type":"execute_result","data":{"text/plain":["TinyBERTClass(\n","  (l1): BertModel(\n","    (embeddings): BertEmbeddings(\n","      (word_embeddings): Embedding(31002, 312, padding_idx=0)\n","      (position_embeddings): Embedding(512, 312)\n","      (token_type_embeddings): Embedding(2, 312)\n","      (LayerNorm): LayerNorm((312,), eps=1e-12, elementwise_affine=True)\n","      (dropout): Dropout(p=0.1, inplace=False)\n","    )\n","    (encoder): BertEncoder(\n","      (layer): ModuleList(\n","        (0): BertLayer(\n","          (attention): BertAttention(\n","            (self): BertSelfAttention(\n","              (query): Linear(in_features=312, out_features=312, bias=True)\n","              (key): Linear(in_features=312, out_features=312, bias=True)\n","              (value): Linear(in_features=312, out_features=312, bias=True)\n","              (dropout): Dropout(p=0.1, inplace=False)\n","            )\n","            (output): BertSelfOutput(\n","              (dense): Linear(in_features=312, out_features=312, bias=True)\n","              (LayerNorm): LayerNorm((312,), eps=1e-12, elementwise_affine=True)\n","              (dropout): Dropout(p=0.1, inplace=False)\n","            )\n","          )\n","          (intermediate): BertIntermediate(\n","            (dense): Linear(in_features=312, out_features=1200, bias=True)\n","          )\n","          (output): BertOutput(\n","            (dense): Linear(in_features=1200, out_features=312, bias=True)\n","            (LayerNorm): LayerNorm((312,), eps=1e-12, elementwise_affine=True)\n","            (dropout): Dropout(p=0.1, inplace=False)\n","          )\n","        )\n","        (1): BertLayer(\n","          (attention): BertAttention(\n","            (self): BertSelfAttention(\n","              (query): Linear(in_features=312, out_features=312, bias=True)\n","              (key): Linear(in_features=312, out_features=312, bias=True)\n","              (value): Linear(in_features=312, out_features=312, bias=True)\n","              (dropout): Dropout(p=0.1, inplace=False)\n","            )\n","            (output): BertSelfOutput(\n","              (dense): Linear(in_features=312, out_features=312, bias=True)\n","              (LayerNorm): LayerNorm((312,), eps=1e-12, elementwise_affine=True)\n","              (dropout): Dropout(p=0.1, inplace=False)\n","            )\n","          )\n","          (intermediate): BertIntermediate(\n","            (dense): Linear(in_features=312, out_features=1200, bias=True)\n","          )\n","          (output): BertOutput(\n","            (dense): Linear(in_features=1200, out_features=312, bias=True)\n","            (LayerNorm): LayerNorm((312,), eps=1e-12, elementwise_affine=True)\n","            (dropout): Dropout(p=0.1, inplace=False)\n","          )\n","        )\n","        (2): BertLayer(\n","          (attention): BertAttention(\n","            (self): BertSelfAttention(\n","              (query): Linear(in_features=312, out_features=312, bias=True)\n","              (key): Linear(in_features=312, out_features=312, bias=True)\n","              (value): Linear(in_features=312, out_features=312, bias=True)\n","              (dropout): Dropout(p=0.1, inplace=False)\n","            )\n","            (output): BertSelfOutput(\n","              (dense): Linear(in_features=312, out_features=312, bias=True)\n","              (LayerNorm): LayerNorm((312,), eps=1e-12, elementwise_affine=True)\n","              (dropout): Dropout(p=0.1, inplace=False)\n","            )\n","          )\n","          (intermediate): BertIntermediate(\n","            (dense): Linear(in_features=312, out_features=1200, bias=True)\n","          )\n","          (output): BertOutput(\n","            (dense): Linear(in_features=1200, out_features=312, bias=True)\n","            (LayerNorm): LayerNorm((312,), eps=1e-12, elementwise_affine=True)\n","            (dropout): Dropout(p=0.1, inplace=False)\n","          )\n","        )\n","        (3): BertLayer(\n","          (attention): BertAttention(\n","            (self): BertSelfAttention(\n","              (query): Linear(in_features=312, out_features=312, bias=True)\n","              (key): Linear(in_features=312, out_features=312, bias=True)\n","              (value): Linear(in_features=312, out_features=312, bias=True)\n","              (dropout): Dropout(p=0.1, inplace=False)\n","            )\n","            (output): BertSelfOutput(\n","              (dense): Linear(in_features=312, out_features=312, bias=True)\n","              (LayerNorm): LayerNorm((312,), eps=1e-12, elementwise_affine=True)\n","              (dropout): Dropout(p=0.1, inplace=False)\n","            )\n","          )\n","          (intermediate): BertIntermediate(\n","            (dense): Linear(in_features=312, out_features=1200, bias=True)\n","          )\n","          (output): BertOutput(\n","            (dense): Linear(in_features=1200, out_features=312, bias=True)\n","            (LayerNorm): LayerNorm((312,), eps=1e-12, elementwise_affine=True)\n","            (dropout): Dropout(p=0.1, inplace=False)\n","          )\n","        )\n","      )\n","    )\n","    (pooler): BertPooler(\n","      (dense): Linear(in_features=312, out_features=312, bias=True)\n","      (activation): Tanh()\n","    )\n","  )\n","  (pre_classifier): Linear(in_features=312, out_features=312, bias=True)\n","  (dropout): Dropout(p=0, inplace=False)\n","  (classifier): Linear(in_features=312, out_features=4, bias=True)\n",")"]},"metadata":{"tags":[]},"execution_count":73}]},{"cell_type":"markdown","metadata":{"id":"R75IGTvAJOvb"},"source":["# **define training process**"]},{"cell_type":"code","metadata":{"id":"ah2evw6XaA9q","executionInfo":{"status":"ok","timestamp":1606255318039,"user_tz":300,"elapsed":1071,"user":{"displayName":"Zhounan Li","photoUrl":"","userId":"12
…
