…
tion_count":null,"outputs":[]},{"cell_type":"code","metadata":{"colab":{"base_uri":"https://localhost:8080/"},"id":"DcyxSJn0UwtX","executionInfo":{"status":"ok","timestamp":1606323301385,"user_tz":300,"elapsed":10691,"user":{"displayName":"Zhounan Li","photoUrl":"","userId":"12163187697439231323"}},"outputId":"bb02f5e0-6dbd-4e33-fb0f-3809b58c4c2a"},"source":["model = TinyBERTClass()\n","model.to(device)"],"execution_count":null,"outputs":[{"output_type":"execute_result","data":{"text/plain":["TinyBERTClass(\n","  (l1): BertModel(\n","    (embeddings): BertEmbeddings(\n","      (word_embeddings): Embedding(21128, 312, padding_idx=0)\n","      (position_embeddings): Embedding(512, 312)\n","      (token_type_embeddings): Embedding(2, 312)\n","      (LayerNorm): LayerNorm((312,), eps=1e-12, elementwise_affine=True)\n","      (dropout): Dropout(p=0.1, inplace=False)\n","    )\n","    (encoder): BertEncoder(\n","      (layer): ModuleList(\n","        (0): BertLayer(\n","          (attention): BertAttention(\n","            (self): BertSelfAttention(\n","              (query): Linear(in_features=312, out_features=312, bias=True)\n","              (key): Linear(in_features=312, out_features=312, bias=True)\n","              (value): Linear(in_features=312, out_features=312, bias=True)\n","              (dropout): Dropout(p=0.1, inplace=False)\n","            )\n","            (output): BertSelfOutput(\n","              (dense): Linear(in_features=312, out_features=312, bias=True)\n","              (LayerNorm): LayerNorm((312,), eps=1e-12, elementwise_affine=True)\n","              (dropout): Dropout(p=0.1, inplace=False)\n","            )\n","          )\n","          (intermediate): BertIntermediate(\n","            (dense): Linear(in_features=312, out_features=1200, bias=True)\n","          )\n","          (output): BertOutput(\n","            (dense): Linear(in_features=1200, out_features=312, bias=True)\n","            (LayerNorm): LayerNorm((312,), eps=1e-12, elementwise_affine=True)\n","            (dropout): Dropout(p=0.1, inplace=False)\n","          )\n","        )\n","        (1): BertLayer(\n","          (attention): BertAttention(\n","            (self): BertSelfAttention(\n","              (query): Linear(in_features=312, out_features=312, bias=True)\n","              (key): Linear(in_features=312, out_features=312, bias=True)\n","              (value): Linear(in_features=312, out_features=312, bias=True)\n","              (dropout): Dropout(p=0.1, inplace=False)\n","            )\n","            (output): BertSelfOutput(\n","              (dense): Linear(in_features=312, out_features=312, bias=True)\n","              (LayerNorm): LayerNorm((312,), eps=1e-12, elementwise_affine=True)\n","              (dropout): Dropout(p=0.1, inplace=False)\n","            )\n","          )\n","          (intermediate): BertIntermediate(\n","            (dense): Linear(in_features=312, out_features=1200, bias=True)\n","          )\n","          (output): BertOutput(\n","            (dense): Linear(in_features=1200, out_features=312, bias=True)\n","            (LayerNorm): LayerNorm((312,), eps=1e-12, elementwise_affine=True)\n","            (dropout): Dropout(p=0.1, inplace=False)\n","          )\n","        )\n","        (2): BertLayer(\n","          (attention): BertAttention(\n","            (self): BertSelfAttention(\n","              (query): Linear(in_features=312, out_features=312, bias=True)\n","              (key): Linear(in_features=312, out_features=312, bias=True)\n","              (value): Linear(in_features=312, out_features=312, bias=True)\n","              (dropout): Dropout(p=0.1, inplace=False)\n","            )\n","            (output): BertSelfOutput(\n","              (dense): Linear(in_features=312, out_features=312, bias=True)\n","              (LayerNorm): LayerNorm((312,), eps=1e-12, elementwise_affine=True)\n","              (dropout): Dropout(p=0.1, inplace=False)\n","            )\n","          )\n","          (intermediate): BertIntermediate(\n","            (dense): Linear(in_features=312, out_features=1200, bias=True)\n","          )\n","          (output): BertOutput(\n","            (dense): Linear(in_features=1200, out_features=312, bias=True)\n","            (LayerNorm): LayerNorm((312,), eps=1e-12, elementwise_affine=True)\n","            (dropout): Dropout(p=0.1, inplace=False)\n","          )\n","        )\n","        (3): BertLayer(\n","          (attention): BertAttention(\n","            (self): BertSelfAttention(\n","              (query): Linear(in_features=312, out_features=312, bias=True)\n","              (key): Linear(in_features=312, out_features=312, bias=True)\n","              (value): Linear(in_features=312, out_features=312, bias=True)\n","              (dropout): Dropout(p=0.1, inplace=False)\n","            )\n","            (output): BertSelfOutput(\n","              (dense): Linear(in_features=312, out_features=312, bias=True)\n","              (LayerNorm): LayerNorm((312,), eps=1e-12, elementwise_affine=True)\n","              (dropout): Dropout(p=0.1, inplace=False)\n","            )\n","          )\n","          (intermediate): BertIntermediate(\n","            (dense): Linear(in_features=312, out_features=1200, bias=True)\n","          )\n","          (output): BertOutput(\n","            (dense): Linear(in_features=1200, out_features=312, bias=True)\n","            (LayerNorm): LayerNorm((312,), eps=1e-12, elementwise_affine=True)\n","            (dropout): Dropout(p=0.1, inplace=False)\n","          )\n","        )\n","      )\n","    )\n","    (pooler): BertPooler(\n","      (dense): Linear(in_features=312, out_features=312, bias=True)\n","      (activation): Tanh()\n","    )\n","  )\n","  (pre_classifier): Linear(in_features=312, out_features=312, bias=True)\n","  (dropout): Dropout(p=0, inplace=False)\n","  (classifier): Linear(in_features=312, out_features=4, bias=True)\n",")"]},"metadata":{"tags":[]},"execution_count":16}]},{"cell_type":"code","metadata":{"id":"RrlJHFOyoZOJ"},"source":["def train(epoch):\n","    model.train()\n","    for _,data in tqdm(enumerate(training_loader, 0)):\n","        ids = data['ids'].to(device, dtype = torch.long)\n","        mask = data['mask'].to(device, dtype = torch.long)\n","        t
…
